…
model.add(tf.keras.layers.Conv2D(64, (3, 3), activation=param_act_fn))
model.add(tf.keras.layers.MaxPooling2D((2, 2)))
model.add(tf.keras.layers.Conv2D(64, (3, 3), activation=param_act_fn))

#### Add Dense layers on top
model.add(tf.keras.layers.Flatten())
model.add(tf.keras.layers.Dense(64, activation=param_act_fn))
model.add(tf.keras.layers.Dense(10))

Model: "sequential"
_________________________________________________________________
Layer (type)                 Output Shape              Param #   
=================================================================
conv2d (Conv2D)              (None, 30, 30, 32)        896       
_________________________________________________________________
max_pooling2d (MaxPooling2D) (None, 15, 15, 32)        0         
_________________________________________________________________
conv2d_1 (Conv2D)            (None, 13, 13, 64)        18496     
_________________________________________________________________
max_pooling2d_1 (MaxPooling2 (None, 6, 6, 64)          0         
_________________________________________________________________
conv2d_2 (Conv2D)            (None, 4, 4, 64)          36928     
_________________________________________________________________
flatten (Flatten)            (None, 1024)              0         
_________________________________________________________________
dense (Dense)                (None, 64)                65600     
_________________________________________________________________
dense_1 (Dense)              (None, 10)                650       
=================================================================
Total params: 122,570
Trainable params: 122,570
Non-trainable params: 0
_________________________________________________________________

Epoch 1/20
1563/1563 [==============================] - 8s 5ms/step - loss: 1.7797 - accuracy: 0.3430 - val_loss: 1.2574 - val_accuracy: 0.5438
Epoch 2/20
1563/1563 [==============================] - 7s 4ms/step - loss: 1.2251 - accuracy: 0.5646 - val_loss: 1.1018 - val_accuracy: 0.6095
…
===========================================================================================================================================================================================================================


#### Create the convolutional base
model.add(tf.keras.layers.Conv2D(32, (3, 3), activation=param_act_fn, input_shape=(32, 32, 3)))
model.add(tf.keras.layers.MaxPooling2D((2, 2)))

#### Add Dense layers on top
model.add(tf.keras.layers.Flatten())
model.add(tf.keras.layers.Dense(64, activation=param_act_fn))
model.add(tf.keras.layers.Dense(10))

Model: "sequential_1"
_________________________________________________________________
Layer (type)                 Output Shape              Param #   
=================================================================
conv2d_36 (Conv2D)           (None, 30, 30, 32)        896       
_________________________________________________________________
max_pooling2d_18 (MaxPooling (None, 15, 15, 32)        0         
_________________________________________________________________
flatten_6 (Flatten)          (None, 7200)              0         
_________________________________________________________________
dense_11 (Dense)             (None, 64)                460864    
_________________________________________________________________
dense_12 (Dense)             (None, 10)                650       
=================================================================
Total params: 462,410
Trainable params: 462,410
Non-trainable params: 0
_________________________________________________________________

Epoch 1/20
1563/1563 [==============================] - 6s 4ms/step - loss: 1.8162 - accuracy: 0.3388 - val_loss: 1.3559 - val_accuracy: 0.5269
Epoch 2/20
1563/1563 [==============================] - 5s 3ms/step - loss: 1.2951 - accuracy: 0.5438 - val_loss: 1.2140 - val_accuracy: 0.5694
…
x = MaxPooling2D((2, 2))(x)

#### Add Dense layers on top
x = Flatten()(x)
x = Dropout(0.2)(x)
x = Dense(1024, activation='relu')(x)
x = Dropout(0.2)(x)
x = Dense(K, activation='softmax')(x)

model = tf.keras.models.Model(i, x)

Model: "model_1"
_________________________________________________________________
Layer (type)                 Output Shape              Param #   
=================================================================
input_3 (InputLayer)         [(None, 32, 32, 3)]       0         
_________________________________________________________________
conv2d_12 (Conv2D)           (None, 32, 32, 32)        896       
_________________________________________________________________
batch_normalization_12 (Batc (None, 32, 32, 32)        128       
_________________________________________________________________
conv2d_13 (Conv2D)           (None, 32, 32, 32)        9248      
_________________________________________________________________
batch_normalization_13 (Batc (None, 32, 32, 32)        128       
_________________________________________________________________
max_pooling2d_6 (MaxPooling2 (None, 16, 16, 32)        0         
_________________________________________________________________
conv2d_14 (Conv2D)           (None, 16, 16, 64)        18496     
_________________________________________________________________
batch_normalization_14 (Batc (None, 16, 16, 64)        256       
_________________________________________________________________
conv2d_15 (Conv2D)           (None, 16, 16, 64)        36928     
_________________________________________________________________
batch_normalization_15 (Batc (None, 16, 16, 64)        256       
_________________________________________________________________
max_pooling2d_7 (MaxPooling2 (None, 8, 8, 64)          0         
_________________________________________________________________
conv2d_16 (Conv2D)           (None, 8, 8, 128)         73856     
_________________________________________________________________
batch_normalization_16 (Batc (None, 8, 8, 128)         512       
_________________________________________________________________
conv2d_17 (Conv2D)           (None, 8, 8, 128)         147584    
_________________________________________________________________
batch_normalization_17 (Batc (None, 8, 8, 128)         512       
_________________________________________________________________
max_pooling2d_8 (MaxPooling2 (None, 4, 4, 128)         0         
_________________________________________________________________
flatten_2 (Flatten)          (None, 2048)              0         
_________________________________________________________________
dropout_4 (Dropout)          (None, 2048)              0         
_________________________________________________________________
dense_3 (Dense)              (None, 1024)              2098176   
_________________________________________________________________
dropout_5 (Dropout)          (None, 1024)              0         
_________________________________________________________________
dense_4 (Dense)              (None, 10)                10250     
=================================================================
Total params: 2,397,226
Trainable params: 2,396,330
Non-trainable params: 896
_________________________________________________________________

Epoch 1/20
1563/1563 [==============================] - 13s 8ms/step - loss: 1.6950 - accuracy: 0.4487 - val_loss: 0.9943 - val_accuracy: 0.6566
Epoch 2/20
1563/1563 [==============================] - 12s 7ms/step - loss: 0.8759 - accuracy: 0.6952 - val_loss: 0.8773 - val_accuracy: 0.6991
…
